artifacts/model.pth (torch, 17863 bytes, 14 tensors)

fc1.weight f4 [64, 10]
00000000: dfac 8f3c be58 2a3e 3461 87be 8baa 6cbe
00000010: c526 f8bd 945e 803d b246 14bc 5000 843e
00000020: 11fc 0bbd f083 a63d 3928 9dbd 8648 c7bd
00000030: a466 9abe 8dad 63be f4f6 01be e2f1 12bc
00000040: 2969 fc3d 552a 353e d410 5bbe d042 0abe
00000050: 2258 ee3d 7f1e 863e 7cab 7fbd f403 743e
00000060: 4bad e6bc 6411 093d 9b79 913e 4825 97be
00000070: 88d0 4cbe 20b1 b6bd c1c2 f7bd 15c6 8a3e
00000080: 319c 4fbe 4b02 2ebe a37c 63be 14d5 9ebe
00000090: 6b43 24be c299 8a3e 25cd 033e 8b5a 183e
000000a0: 2827 6a3d 2614 2fbe 255b 3c3d 996e 97be
000000b0: 5b58 63be 2024 4cbe b5a2 513e 97d9 113e
000000c0: 590a 06be 0c95 12bc 35bd 503e 90d6 9d3e
000000d0: 1423 f03d 7825 303d ad44 3d3e 263d 7cbe
000000e0: aa94 2d3d 1249 6bbe 40e1 65be fbfe 1ebe
000000f0: 6736 083e 25bd 043e 08de 3abe 25a4 c23d
00000100: 1509 cc3d daee 0bbe 26e5 49bc c1ab 563d
00000110: 67f1 503e bd50 a23e dec1 85be b7fe babd
00000120: 561d f73d 8205 883e 8067 7b3e b1ad 933e
00000130: f50f 7f3d 360e 96be fb70 273d 4289 3cbe
00000140: c32f 90be b32f 8d3e c2d7 783e 394c a4be
00000150: b705 963d 065a 95bd e459 79bd 0f53 16be
00000160: 1cac d83d 628a 4abe 7d90 fb3d 18a2 2d3e
00000170: 6c18 6b3e 79a9 033e 698f a0be 9ec8 42be
00000180: 4029 1f3e 77e0 913d e1b0 7abe edde 35be
00000190: 2c92 983e 3e7c 5f3e e8b2 11be 71fd 4cbd
000001a0: 4578 9cbe 03cc 163d 7650 6bbe 48df 7abe
000001b0: 5de4 95bc 8d46 3e3d b96a f2bd c25d 1f3e
000001c0: 0425 47be 20d9 923e 79a2 443e 3557 9dbe
000001d0: 4e61 9cbd c0bd 6d3b 5d04 413d e434 a53d
000001e0: c38b cf3d 9b61 353c 23dd 20be 9ebf 173e
000001f0: 732c 9bbe 6eb5 54be ba63 8cbd b48a 1fbe
00000200: 1af9 debd cdb4 83be cff5 cebd 1337 853d
00000210: dc44 45be 1d1c 29bb 3e81 7b3e 30cb 513c
00000220: d394 a53c 45c4 5abd 38a3 883d dcf4 3d3e
00000230: 2c45 963e 2122 473e e881 983e 9525 18bd
00000240: b2ad 8fbe b6dc 4abe 8b7a 5e3e 5016 2d3c
00000250: ee74 1fbe 678b 66be ab84 95be a462 8cbe
00000260: 896e 7fbd d8a8 1a3e 0b59 343e e2de aebe
00000270: 3515 363e 7978 5fbe 420d 9cbd 6702 05be
00000280: 6219 6dbd 1ea7 9ebd 7c48 8ebe 1ffd 8fbe
00000290: be61 bcbc 87f4 8fbc 8611 03be ef69 0e3e
000002a0: 98dd 90be 1cbe f9bc c61f 8a3e 6a21 f5bd
000002b0: 456b 913e 024b fc3d 6ed3 93be d1dc 533e
000002c0: f477 45bd 98ce 12be 73cf 823e a728 81be
000002d0: 2117 323b 6085 4bbd 341f 643e e4e2 b93d
000002e0: d9db 143e 6a12 243e 8b27 acbd 8083 86bd
000002f0: f5e7 7cbe 0be1 2f3e f4a9 753e 04a6 523e
00000300: e3a7 60be dda7 fe3b c237 60be 2b73 55be
00000310: d666 3abe 479e f03d 2aa9 3fbe 854d 22bc
00000320: 6952 e83c dae7 423e 148e 78be 39cd 36be
00000330: 8e71 3fbe 3bd6 8d3e 945c f7bd 013a 783e
00000340: 47fa ee3d 88a8 1d3d 043a d1bb 1e8e 4cbd
00000350: 6987 0c3d 093c 53bd 9359 a33d 18d9 fb3d
00000360: b328 4ebe 438c 2fbe 35f3 813e 434e 89be
00000370: 4fee 4bbc cf1c 9d3e 997f d93d 5bc0 613c
00000380: d70e 8dbe eadb 503e 7343 49be 8074 b9bd
00000390: e000 dcbd 7e91 3dbd 4c65 5b3b a6c0 843e
000003a0: fcf7 1c3d f4fb 8e3e ca50 3f3e 1f62 6fbe
000003b0: 946f f33d bf94 5abe d7b1 0bbe a799 ca3d
000003c0: 0ccf c03d 36b1 403e 01f8 c3bd 209f 02bd
000003d0: 322c 203e 91f4 c5be c38c 533e aefe 64be
000003e0: 9667 3a3c 2928 31bd 1149 27be b761 6c3d
000003f0: d2d1 853e fefa b5bd 2307 42be ef15 ccbd
0.017538486 0.16635415 -0.26441348 -0.23111932 -0.1211677 0.06268039 -0.009050058 0.25781488
-0.034175936 0.08130634 -0.076736875 -0.097306296 -0.30156434 -0.22234173 -0.12691861 -0.008968802
0.12324745 0.1769193 -0.21393138 -0.1350205 0.11637904 0.26195142 -0.0624194 0.23829633
-0.028158804 0.03346385 0.2841309 -0.2952063 -0.20001423 -0.08920503 -0.12097693 0.2710425
-0.20274426 -0.16993062 -0.22215514 -0.3102194 -0.16041343 0.27070433 0.12871225 0.1487829
0.05716625 -0.1709753 0.04598536 -0.29576567 -0.22201674 -0.19935656 0.20472224 0.1424316
-0.13089885 -0.008946668 0.20384677 0.3082776 0.117254406 0.043004483 0.18483229 -0.24632701
0.042378105 -0.22977093 -0.22449207 -0.15526955 0.13302003 0.12962778 -0.1824876 0.09503964
0.0996267 -0.13665333 -0.0123227 0.05240989 0.20404588 0.31702223 -0.2612447 -0.09130614
0.12066142 0.26566702 0.24551201 0.28843454 0.062271077 -0.29307717 0.04087923 -0.18411735
-0.2816144 0.27575454 0.24301055 -0.32089403 0.07325309 -0.07292561 -0.060876742 -0.14680122
0.10579702 -0.19779351 0.12283418 0.16956365 0.22958535 0.12857617 -0.31359413 -0.19021842
0.1554308 0.071228914 -0.24481536 -0.1776082 0.2979902 0.21824738 -0.14228404 -0.050046388
-0.30560508 0.036815654 -0.22979912 -0.24499238 -0.018297369 0.046454 -0.11836762 0.1556311
-0.19447714 0.28681278 0.19202603 -0.30730596 -0.07635747 0.003627643 0.0471233 0.08066729
0.10134079 0.011070634 -0.15709357 0.1481919 -0.3030735 -0.20772335 -0.06854959 -0.15580255
-0.10887356 -0.25723878 -0.10105478 0.06504645 -0.19264549 -0.002580411 0.2456102 0.012804791
0.020212566 -0.053409833 0.066717565 0.18550438 0.2934965 0.19446613 0.2978661 -0.037145216
-0.28062207 -0.19810757 0.21726434 0.010564402 -0.15571949 -0.22514115 -0.2920278 -0.27419007
-0.062361274 0.15103471 0.17612092 -0.3415442 0.17781527 -0.218233 -0.07619716 -0.12989198
-0.057885535 -0.07746719 -0.27789676 -0.28122804 -0.022995826 -0.017572654 -0.12799653 0.13907598
-0.28294063 -0.030486159 0.26977366 -0.11969264 0.28402153 0.12318994 -0.28872246 0.20689704
-0.0482101 -0.14336622 0.25548896 -0.25226328 0.002717443 -0.049687743 0.22277528 0.09076479
0.1453699 0.1602265 -0.0840598 -0.065680504 -0.2469786 0.17175691 0.23990613 0.20571142
-0.21939044 0.0077714757 -0.2189627 -0.20844714 -0.18203291 0.11748939 -0.18716875 -0.009906177
0.028359609 0.19033757 -0.24272949 -0.17851724 -0.18695661 0.27702507 -0.12078205 0.24240877
0.1166883 0.038490802 -0.00638509 -0.04994022 0.034308825 -0.051570926 0.07976069 0.12297267
-0.20132713 -0.1714335 0.25380865 -0.2681752 -0.012446954 0.30686042 0.106200404 0.013778771
-0.27550384 0.2039639 -0.19654636 -0.09055424 -0.107423544 -0.04628133 0.0033477126 0.2592823
0.038322434 0.279266 0.18683162 -0.23377274 0.11886516 -0.21345805 -0.1364206 0.09892588
0.09414491 0.188176 -0.09568787 -0.031890035 0.15641859 -0.38663152 0.20659165 -0.22362778
0.011377236 -0.04325119 -0.16336466 0.057710376 0.26136643 -0.088857636 -0.18948035 -0.09965121

fc1.bias f4 [64]
00000000: 8cbc 3fbe e2d3 393d 2ab8 ce3d 8e6b b73c
00000010: 63f2 51be 7ad6 9a3e af4c 3cbe 812b 853e
00000020: b5cc 80be 99c9 9bbd 7f25 303e 324e 04be
00000030: 9c02 883e 41d6 5ebe 5cf7 87be f103 12be
00000040: 7a61 513d 0c14 953e 3497 1abe c49c e73d
00000050: d45d a2bd 9072 8cbd 9a1a 6e3e 2cf4 7abe
00000060: 2893 093d a642 983e 59fc 31bd 8e6c 7b3e
00000070: 8671 c7bd 8f54 823e 7e9e 9cbe cdad 3abd
00000080: 6582 63bd 7ce3 d13d b315 fe3d e1a1 783e
00000090: 17fa 40bd be74 4dbc f1c0 5d3e 843b afbd
000000a0: 3eef 8d3e f899 57be 2e29 0cbd e523 8bbc
000000b0: 8f7d 103e d862 5d3e 154e 4dbd 5e23 86be
000000c0: ec72 203e 60ba c13d c113 023e 9cc0 47be
000000d0: 4768 503e 415a 993e d6c8 e03c 013b 97be
000000e0: 0151 633e 3e18 70be 83df 943d c239 3c3d
000000f0: ec8e 17be e180 e13d fdd0 90be 4081 933d
-0.18724269 0.045368083 0.1009372 0.022390153 -0.2050262 0.30241758 -0.18388627 0.26009753
-0.2515618 -0.07606811 0.17201804 -0.12920454 0.2656449 -0.21761419 -0.26555908 -0.14259316
0.05111835 0.29116857 -0.15096742 0.113091975 -0.079280525 -0.068577886 0.23252335 -0.24507207
0.033587605 0.2973835 -0.043453548 0.24553129 -0.0973845 0.25455138 -0.3058967 -0.045575906
-0.055544276 0.10248467 0.124064825 0.24280502 -0.047113504 -0.012540041 0.21655633 -0.085562736
0.2772159 -0.21054828 -0.03421896 -0.01698489 0.14110397 0.21619737 -0.050123293 -0.26198858
0.15668839 0.09459376 0.12702848 -0.19507068 0.20352279 0.2995167 0.027439516 -0.29537204
0.2219887 -0.23446748 0.07269194 0.04595352 -0.14800614 0.1101091 -0.28284445 0.07202387

bn1.weight f4 [64]
00000000: a7f3 7c3f 2cf4 7e3f 90ca 7f3f a7d2 803f
00000010: 83dc 803f 57be 7d3f 75f1 7d3f 6ea1 803f
00000020: 1d8f 7e3f 5efc 7e3f 13b8 7c3f 6da9 7e3f
00000030: 874e 803f e000 803f 6c8a 803f f341 7f3f
00000040: 97b8 803f d9c4 7e3f 7a7b 803f d820 813f
00000050: 9e9f 7e3f 830c 7f3f 0352 7f3f c746 7e3f
00000060: 7f90 813f c060 7d3f c81f 803f f801 7d3f
00000070: fe61 813f 9075 7d3f a8bf 7f3f 9794 813f
00000080: 2f58 823f 34a8 7f3f da1c 813f 9a0e 7f3f
00000090: 66fa 7e3f 159f 7f3f 631e 803f a0b3 803f
000000a0: ff60 803f f261 7d3f 657b 833f f03f 7f3f
000000b0: 4976 7c3f 0625 813f 1d4e 7f3f 7350 803f
000000c0: 3eb4 803f 1e52 7e3f 4a7b 7b3f bb6a 803f
000000d0: 8407 7b3f 62e1 7d3f aef8 803f 183a 803f
000000e0: 5f89 7f3f 1a12 813f a284 833f 3efd 7e3f
000000f0: 28c3 7f3f 26f1 7f3f 8654 813f 9929 7f3f
0.98809284 0.99591327 0.9991846 1.0064286 1.0067295 0.9911856 0.9919656 1.0049264
0.99437124 0.9960383 0.98718375 0.99477273 1.0023965 1.0000267 1.0042243 0.99710006
1.0056332 0.99519116 1.0037682 1.0088148 0.99462306 0.99628466 0.99734515 0.9932675
1.0122222 0.98975754 1.0009699 0.9883113 1.010803 0.9900751 0.9990182 1.0123471
1.0183161 0.9986603 1.008693 0.99631655 0.9960083 0.99852115 1.0009273 1.0054817
1.0029601 0.9897758 1.0272032 0.99706936 0.9861799 1.0089424 0.99728566 1.0024551
1.0055006 0.9934405 0.98235 1.0032572 0.9805834 0.9917203 1.0075891 1.0017729
0.99818987 1.0083649 1.0274851 0.99605167 0.9990716 0.9997734 1.010392 0.9967285

bn1.bias f4 [64]
00000000: 508e 26bc 7a5d 91bb 1a0e 6e3b a2c5 3e3c
00000010: 6f0b 0c3b 6a6c 5ebb e186 d2bb 98a9 063c
00000020: f184 5d3a af78 99ba 302e 93bc 8c39 14ba
00000030: 3094 c6ba d1b5 54b9 50ac 253c a4b8 00bc
00000040: b858 a03b b8b1 38bb 9621 903b 6236 333c
00000050: 736b a539 991e c63a fa29 173b f15d d9bb
00000060: 4a6a 5b3c eb64 32bc f33a 0fbb a7f0 7abc
00000070: 51be c53a d88f 02bc 7c52 263b 712d 913c
00000080: 6fe3 d33c b480 5bbb d40c a73c d7f5 fc3a
00000090: 21ba 503b e854 e939 ba0e 3a3c f19f d1bb
000000a0: ab24 04ba 4f11 1bbc 9f44 f03b 4231 23bc
000000b0: 5415 a3bc 6d21 de3a 3954 323a 7e5b b83a
000000c0: 8b06 343b 8541 b9bb ce68 31bc 0a9e a53a
000000d0: 0ab0 05bc ef44 dfbb 2cd3 b83b 7be8 0d3b
000000e0: 2d60 a93b 36f9 d53a 3906 463c 55bb 323b
000000f0: 796f c0bb d0fa aa3b 2156 163c 8af7 cdba
-0.010165766 -0.004436192 0.0036324323 0.011643799 0.002136912 -0.0033939132 -0.00642477 0.008219145
0.0008450291 -0.001170894 -0.01796636 -0.0005654327 -0.0015150364 -0.00020285627 0.010111883 -0.007856522
0.0048933886 -0.00281821 0.004398535 0.010938259 0.00031551308 0.001511532 0.0023065791 -0.006633513
0.0133920405 -0.0108883185 -0.0021855205 -0.015316165 0.0015086626 -0.007968865 0.0025378754 0.017721863
0.025865285 -0.003349346 0.02039186 0.001929934 0.0031849223 0.00044504483 0.01135605 -0.0063972403
-0.00050408643 -0.009464576 0.007332399 -0.009960474 -0.019907631 0.0016947218 0.0006802711 0.0014065353
0.002746972 -0.0056535625 -0.01082821 0.00126356 -0.008159647 -0.0068136374 0.005640408 0.0021653462
0.0051689357 0.0016324881 0.012086445 0.0027272303 -0.0058726636 0.0052178875 0.009175808 -0.0015714031

bn1.running_mean f4 [64]
00000000: 6a9a 21be 4da4 4e3c dfb2 e1bc 991d fd3d
00000010: 42d9 63be 58ac 963e eadf b3bd 83c4 383e
00000020: 7ddb 6abe 2874 35be a42d 0d3e 854d 4fbd
00000030: 0a54 423e cf6d 20be 8b20 b7be b396 1cbe
00000040: a633 a33d f7ee 443e c894 24be fccc 053e
00000050: 2c3d 8cbd 8b30 74bd 2bc5 223e 2e8e 7ebe
00000060: 22b9 743d 914f 9a3e 080c c83c f21d 4e3e
00000070: 8841 02be d40c 543e c60d 83be 2339 0abd
00000080: 3476 a6bd 5fc6 913d 0361 7e3c 70da 723e
00000090: 6905 32be e082 863c c88d 303e 0dde 1dbe
000000a0: b961 983e 1f7d 61be d604 773c 8498 c2bd
000000b0: 80e6 1c3d 47c1 ec3d 49eb e7bd b415 1bbe
000000c0: 282b b23d a384 723e 4290 2f3e 7a45 09be
000000d0: 6ed6 f83d 7685 8d3e ea9a 773d 5ff3 80be
000000e0: e645 3c3e eec1 66be 862b 1d3e 4e73 293e
000000f0: f85f 68be a75f cc3d de74 a0be a6c2 a73d
-0.1578156 0.012612415 -0.027551113 0.12359161 -0.22250846 0.29428363 -0.087829426 0.18043713
-0.2293529 -0.17720091 0.13786942 -0.050611038 0.18977371 -0.15666889 -0.35767016 -0.15291862
0.079688355 0.19231783 -0.1607238 0.13066477 -0.06847605 -0.059616607 0.15895526 -0.24858925
0.05974687 0.3013883 0.0244198 0.2012861 -0.1272031 0.20708019 -0.25596446 -0.033745896
-0.08128014 0.071179144 0.015526059 0.2371614 -0.17384876 0.016419828 0.17241585 -0.15416737
0.29762056 -0.22020386 0.015076837 -0.09501746 0.03830576 0.11560302 -0.11324174 -0.15144998
0.08699638 0.2368341 0.17144874 -0.1340541 0.12150274 0.27640885 0.060450472 -0.25185677
0.18386039 -0.22534916 0.15348634 0.16547891 -0.22692859 0.09979182 -0.31339163 0.08191423

bn1.running_var f4 [64]
00000000: a5cc 8b3e 9aaf fa3e 9ef3 113f 59d4 0d3f
00000010: 8bff ec3e ebd1 bb3e 67da 543e 0d2f 273f
00000020: 28e4 f53e 8fc9 bf3e 9d76 5e3f 3ac5 a33e
00000030: 4b3b 1b3f 6d9b 003e d054 b53e fee1 993e
00000040: a256 033f 3af6 f43e 22c5 d43d 75af 373f
00000050: bbb2 5f3e a405 a63e 17dc c73e 9cbd a23e
00000060: 9620 873e c96c 973e 3215 2b3f 4722 193f
00000070: 69ed 8c3e 0dda 333e 8ff3 063e a772 8f3e
00000080: bafd a13e bc06 623f c6e0 a23e 11bc 653e
00000090: 5406 3f3f 5737 fd3e 8711 f53e 148d 463f
000000a0: e706 a93e 82f3 313e 4b5c 603e 878e 8b3e
000000b0: 3020 053f eb3b c53e f911 b43e 72cb f23e
000000c0: a312 ab3e 5081 213f 38f5 f03e c7a1 413e
000000d0: 04c2 9e3e fe5b 8b3f 23c7 433e f063 1b3f
000000e0: a33d b23e 3598 d53e 03e5 643e 0150 2a3f
000000f0: cb80 033f c49f 4c3f 9f42 123f 7cd4 b43e
0.2730457 0.48962098 0.57012355 0.5540214 0.46288714 0.36683592 0.20786439 0.6530617
0.48025632 0.37458465 0.8689974 0.3198641 0.6063735 0.1255929 0.3541627 0.3005523
0.51304066 0.47844106 0.103891626 0.717521 0.21845524 0.32426178 0.39035103 0.31785285
0.2639205 0.29575184 0.66829216 0.5981793 0.2752488 0.17563649 0.13178848 0.2801716
0.3163889 0.88291526 0.31812114 0.22435023 0.7461903 0.49456283 0.47864935 0.7755902
0.3301308 0.17378047 0.21910207 0.27257177 0.5200224 0.38522276 0.35169962 0.4742084
0.33412656 0.6308794 0.47062087 0.1890937 0.31007397 1.0887449 0.19118933 0.6069937
0.3481265 0.41717687 0.22352986 0.66528326 0.513684 0.79931283 0.57132906 0.35318363

fc2.weight f4 [32, 64]
00000000: abbf 8fbd 0624 90bc 7ea5 4b3c a33b ce3d
00000010: 4c2a 9abd 43f4 a83d 1898 3ebc 8f87 3abd
00000020: b077 d1bd 3ae2 01be 2fd6 f93d 479d 00bd
00000030: 9a83 ebbb 8edf 543d 4a90 9e3d 3f57 d43d
00000040: c467 bd3d 62ed a9bd 34eb 833b a2b6 99bd
00000050: 7aad 87bd 0a0d 083d a59a 013e 5722 d4bd
00000060: 3cc9 753d 5aa7 98bd 538d 89bc e9df a83d
00000070: 2153 adbc 33b3 9b3a f48a b6bd 2bd2 fc3d
00000080: e40a d73b 2ed8 acbd f944 273d f0e0 9ebd
00000090: 4237 b6bd 7250 4539 cf8b ec3d 234d f3bc
000000a0: 409b 353d ecd2 ca3d ea8d 6d3d 7f69 8cbd
000000b0: 92ca 56bc 7052 f2bc d992 c2bd b980 bebb
000000c0: 783e d43d 71f2 ef3d 2dc8 cb3c 3f99 3c3d
000000d0: 829a 8dbd d325 c23d 3e9c 32bd 25f9 b3bd
000000e0: 7273 f03c c03d af3d 89d6 ffbd 2ecf f33d
000000f0: fde1 2b3d cf5e 8ebd 64fb 20bd b983 eb3d
00000100: f46c edbd 9f5a 5fbd 6195 4f3d b225 f7bd
00000110: 429c e63c d1b7 aa3d 1480 9f3d 8351 0abd
00000120: 5c45 e93d 1e59 abbd 743d e83d ea11 e1bd
00000130: 8463 02be 1b8f ab3d 901c 1e3c c5bf 863c
00000140: d275 f1bd 8204 61bd 17cd 04bd 2271 fdbd
00000150: 4bc7 d9bc d896 183d b7bc 773b 11bc 483d
00000160: 88fc 9d3d d405 003c 72e3 34bd c49e 8dbd
00000170: 298b d5bd 2bee b0bd a12c 08bd 20c9 0837
00000180: d665 873d 53ee 47bd 4667 e33d abeb bdbd
00000190: d128 c83c 1e81 9b3d 6bd5 f63d 8e68 99bd
000001a0: 8573 3c3b fb1f 853c 2ab3 c0bd 0ad5 b5bc
000001b0: 862c ef3c eece a4bd 8d94 1b3d bd8a 263d
000001c0: 9f72 dcbc 2c38 e73d 8869 823c d7b3 863d
000001d0: 74dd a33d e522 71bd 5e8b 603d b719 37bd
000001e0: 98f8 fdbc 8185 3bbd 8210 1fbd 1c83 95bd
000001f0: 072a 4d3d 7970 1d3b a819 893d 07bd 2bbd
00000200: 8900 173d 4a8a 2bbd a7b2 c0bd edaf 8b3d
00000210: 9467 ac39 6657 e5bc 366b e5bc 110c 383d
00000220: 367e 6bbc 61f2 a73d 6811 263c 9f5e 383d
00000230: ae62 443d 9abd a9bc 91ff 6c3d 0d91 ba3d
00000240: f14a b23b 6ddd ca3c 3f46 c93a 2afc d33d
00000250: f5a9 d7bc fa40 20bd 81bc 633d dd78 c7bd
00000260: 740b c23a 425c 4cbd 3240 c13d f57d 02be
00000270: 77d1 7e3d 74d6 ef3d ce6b 153d f992 36bc
00000280: 3da0 0a3e 1c6a 4dbd 617e 1cbd 9cbe 1cbd
00000290: 6ece e0bc 09fc ea3c c98c f93c 8199 48bd
000002a0: 365a ecbd ea61 59bc 8dc2 a6bc 915f d73c
000002b0: 1f87 ab3d 8dd7 213e a8e0 9bbd ee72 ffba
000002c0: 2490 42bd 0c29 afbd 461c 8fbd d854 1d3e
000002d0: 5ce4 333d 1b6b 953d e365 763d 5613 d3bd
000002e0: 11f9 d8bc 434e f83d 9887 a3bd 6925 dc3d
000002f0: 152e b83c ad0d a93d 3774 79bd 8647 733d
00000300: 37a8 c2bd 1602 f03c 88e6 8b3c c358 863d
00000310: 7fb1 0b3e 7070 dc3d 20bd cc3d 6152 6e3d
00000320: d8df e13d 61d4 ccbb 3d27 cabd d51a fabc
00000330: b233 d2bb a8ba a8bd 44e5 883d 11c1 133d
00000340: 42df 163d a091 8e3c 76f5 a53d 4eb5 333d
00000350: 705c b1bd 9466 c9bd bdd9 4d3d 7fcc 8a3c
00000360: f634 b03d 71fd efbd 8cf9 d5bd 6052 c23d
00000370: a7b7 583d 5951 c0bd 4712 823d a8a8 b5bd
00000380: 3f3f 973d d73f 023d a7be e83d e3b0 02be
00000390: 1d6d 12be 713f e33d d740 ae3d e563 b73d
000003a0: 8155 c93d c101 bcbd 89fc c93d b536 f2bd
000003b0: 7413 d53c cc83 f2bd 5a4c 50bd b2ec 6f3d
000003c0: 5bb8 76bd 42f0 30bc 85f3 cebd 3fe1 0abe
000003d0: 231d bb3d d167 fdbc c616 aebd dc80 6bbc
000003e0: 2dc5 c1bd 50a5 c4bd ee12 d13d d231 4c3d
000003f0: de1b 213c 2aa8 49bd e3b3 8e3d 5686 aa3b
-0.0701898 -0.017595302 0.012429593 0.100699686 -0.07527599 0.08249714 -0.011632942 -0.045539435
-0.10227907 -0.12683955 0.121990554 -0.03139999 -0.007187319 0.05197101 0.07742365 0.10368203
0.09248307 -0.0829723 0.004025841 -0.075055376 -0.06624885 0.03321556 0.12656648 -0.10358112
0.060006365 -0.07453795 -0.016791021 0.082458325 -0.021157803 0.0011878967 -0.08913222 0.12344774
0.0065625776 -0.084396705 0.04083726 -0.07757747 -0.08897258 0.00018817352 0.11550104 -0.029699868
0.04433751 0.099035114 0.057996668 -0.06856059 -0.01310982 -0.029580325 -0.09500665 -0.005813685
0.103634775 0.11716164 0.024875725 0.046044584 -0.06914236 0.09479871 -0.043606035 -0.08787755
0.029351924 0.085567 -0.12492091 0.11904751 0.041963566 -0.06951677 -0.039302245 0.114997335
-0.11593047 -0.054529782 0.05067957 -0.12067737 0.028150681 0.083358414 0.07788101 -0.033769142
0.113901824 -0.08366607 0.11339846 -0.10989745 -0.12733275 0.083769046 0.0096503645 0.016448865
-0.117900506 -0.05493594 -0.03242215 -0.12375094 -0.026584288 0.03725323 0.0037801692 0.04900748
0.07714182 0.0078138895 -0.04416222 -0.06915048 -0.10426933 -0.08639177 -0.033245686 8.15306e-06
0.066112205 -0.048811268 0.11103682 -0.09273466 0.024433525 0.075929865 0.12052425 -0.07490645
0.0028755378 0.016250601 -0.09409173 -0.022196312 0.029196035 -0.08047281 0.037983466 0.040659655
-0.026910124 0.11290011 0.015919462 0.065772705 0.08001223 -0.05887117 0.05482041 -0.044702258
-0.031002328 -0.045781616 -0.038834102 -0.07300398 0.05008891 0.0024023338 0.06694347 -0.041928317
0.036865745 -0.04187993 -0.09409075 0.068206646 0.00032883568 -0.027995776 -0.028005224 0.044933382
-0.014373353 0.08200527 0.010135986 0.045012113 0.04794567 -0.020720292 0.057860915 0.091096975
0.0054410626 0.024763787 0.0015356018 0.10350831 -0.026326159 -0.039124466 0.055599693 -0.0973985
0.0014804439 -0.04989267 0.094360724 -0.12743361 0.06221148 0.117108256 0.036479764 -0.011143439
0.13537689 -0.050150022 -0.03820646 -0.038267717 -0.027442183 0.028684633 0.03046264 -0.048974518
-0.11540644 -0.013267973 -0.02035644 0.026290687 0.08375382 0.15804882 -0.07611209 -0.0019489208
-0.047500744 -0.08552751 -0.069878146 0.15364397 0.043918952 0.07295819 0.06015576 -0.103064224
-0.026485952 0.12124302 -0.07984847 0.10749323 0.022482911 0.082545616 -0.060901847 0.059394382
-0.09504741 0.02929787 0.0170777 0.06559899 0.13641928 0.10763633 0.0999701 0.05818403
0.11029023 -0.0062509035 -0.09870765 -0.030530373 -0.006414854 -0.08238727 0.06684354 0.036072794
0.03683401 0.017403424 0.081034586 0.043874077 -0.08660209 -0.09834018 0.05025648 0.016943214
0.086038515 -0.11718262 -0.10447988 0.09488368 0.05290952 -0.09390516 0.063511424 -0.08870059
0.0738511 0.031799164 0.11364489 -0.1276279 -0.14299436 0.11096085 0.08508461 0.089546
0.09830762 -0.09180022 0.098626204 -0.11826841 0.026010253 -0.118415445 -0.050854065 0.05857534
-0.06023441 -0.010799469 -0.101050414 -0.13562487 0.09136417 -0.030933293 -0.085004374 -0.014373984
-0.094614364 -0.09601843 0.10208689 0.0498522 0.009833304 -0.04923264 0.069679044 0.0052040024

fc2.bias f4 [32]
00000000: 4064 4abc 0925 0fbb 4ea2 bebd 0ecc f93d
00000010: 10d1 5cbd 4af1 943d 5883 8fbd d3f9 5b3a
00000020: 8845 2f3d e00d ebbd b4da 6a3d 30f4 c3bd
00000030: 38e5 8e3c f80e cbbc c2be 923d 82ce f83d
00000040: 48c6 e63c 40ea 69bb f0aa 7dbd 60e4 3e3d
00000050: e86f 76bd 847d 533d 38ea 5dbd fea5 ad3d
00000060: 785c c43d b0f9 9c3d 641e a43a d06f 6d3d
00000070: 8a46 e9bd ee9b cf3d 1c06 05bd 28a7 3a3d
-0.012353003 -0.0021842143 -0.09308301 0.121971235 -0.053910315 0.07272585 -0.07007474 0.0008391414
0.04279092 -0.11477256 0.057337478 -0.095680594 0.017443284 -0.024787411 0.071652904 0.12148763
0.02817072 -0.0035692602 -0.061930597 0.046604514 -0.060165316 0.051633373 -0.054178447 0.08478926
0.095879495 0.076648116 0.0012521264 0.05796796 -0.113904074 0.10137163 -0.03247653 0.04556957

bn2.weight f4 [32]
00000000: 9785 7c3f 3074 7e3f ec40 803f 726b 813f
00000010: 83cc 7f3f 7a4e 803f 41e4 7e3f 2993 7f3f
00000020: 02e9 793f 6d31 7c3f ca02 7f3f e768 7e3f
00000030: 95ee 7d3f f15e 7f3f 1263 7e3f 0459 7f3f
00000040: ee2c 7e3f 2bc5 7a3f cfb0 7e3f 6f85 7d3f
00000050: cdc5 813f 6931 7f3f a4a9 803f ab94 7d3f
00000060: d8f5 7e3f a5ae 7e3f ad5d 7f3f daa9 7e3f
00000070: a7ae 7e3f f859 7c3f 21d6 7c3f e632 7e3f
0.9864134 0.9939604 1.0019813 1.0110915 0.99921435 1.0023949 0.9956704 0.99833924
0.97621167 0.9851292 0.9961363 0.9937882 0.9919217 0.99754244 0.9936992 0.997452
0.9928731 0.97957104 0.9948854 0.9903173 1.0138489 0.9968477 1.005177 0.99054974
0.9959388 0.99485236 0.9975231 0.9947792 0.9948525 0.9857478 0.98764235 0.99296415

bn2.bias f4 [32]
00000000: 8f50 57bc 0ec5 0abc b9f1 ceba 8907 203c
00000010: ccbe 243c 115f 6d3b bb3e 4dbb 3743 29bc
00000020: 0b93 55bc f0c6 c03b 5bf5 e73a 2700 babc
00000030: d63b 09bb bae6 35bc 84f2 3e3b 94df 2d3b
00000040: 3acb 8eba 2bc1 d6bb 0272 433b dbc5 27bc
00000050: e10f d53c 51d2 d5bb 2beb d5ba 237d febb
00000060: 938d 0ab9 634f 49bb 1d28 433a 65dc 07bb
00000070: 9019 a2bb 3d84 acbb 733b 1cbb ab56 a5b9
-0.013141765 -0.008469833 -0.0015788592 0.0097674215 0.010055255 0.0036219994 -0.0031317908 -0.010330967
-0.013035546 0.00588309 0.0017697023 -0.02270515 -0.0020940206 -0.011102373 0.002913625 0.0026530968
-0.0010894306 -0.006553789 0.0029822593 -0.0102400435 0.026008548 -0.006525316 -0.0016320696 -0.0077663823
-0.00013213446 -0.0030717484 0.0007444637 -0.002073073 -0.004946895 -0.0052647875 -0.0023839145 -0.00031535825

bn2.running_mean f4 [32]
00000000: 0ca3 fc3d 7215 0cbe d046 3a3e 933c 423e
00000010: c271 84be 965d 003e 7968 43bf 51d6 afbe
00000020: 7039 c43e e571 1dbf 5683 b13e e540 8bbe
00000030: a27d 8c3d 8270 97bd 8532 f33d c830 013e
00000040: 36e6 5e3d 4899 9b3d d4c8 923d 775e 6dbe
00000050: 83f2 053d c7df 993d 7834 f1bd 0cd5 83bc
00000060: 7396 cc3d f82e 613e e040 c8be 34ba babd
00000070: 39aa e9be 8b9f 913d 6d57 653d eb82 cabe
0.12335786 -0.13680056 0.18191075 0.1896842 -0.2586804 0.125357 -0.7633129 -0.34343198
0.3832507 -0.61501914 0.34670514 -0.27197948 0.068599 -0.07394506 0.1187487 0.12616265
0.054418765 0.075975955 0.07167211 -0.23180567 0.03270198 0.07513385 -0.11777586 -0.0160928
0.099896334 0.21990573 -0.39111996 -0.09117547 -0.45637682 0.071105085 0.05599158 -0.39553007

bn2.running_var f4 [32]
00000000: 0bd6 043e 86b7 273e 37bd 363e 5ba7 f03e
00000010: 17e9 773e 9ce5 813e b796 403e 189d ba3e
00000020: 2c9d 373e 765f 853e 3501 593e 6fe3 a03e
00000030: 2955 d73d 47be 5b3e c750 893e 7f24 263e
00000040: c0eb 6a3e d11a 7b3e 54e8 8f3e 8ea4 1b3e
00000050: 31b4 8f3e fb07 203e 2dee 8b3e da24 4f3e
00000060: cdfb 873e 6619 653e 5007 7b3e 338d 233e
00000070: 9a1a 3d3e 37d1 4d3e e67e 3d3e 0dbb 713e
0.12972276 0.16378602 0.17845617 0.47002682 0.2421001 0.2537049 0.18807493 0.36447978
0.1793105 0.26049393 0.21191867 0.31423518 0.1051429 0.21459304 0.2681944 0.1622486
0.22941494 0.24521948 0.2810694 0.15199491 0.28067163 0.15628044 0.2733015 0.20228902
0.26559296 0.2237297 0.24514508 0.15971832 0.18467179 0.2009934 0.18505439 0.2360651

fc3.weight f4 [3, 32]
00000000: 5e58 34bc 523c 67bd 99a8 b6bd d18a 003e
00000010: acee dcbd 1ca3 b3bd fca0 243d b966 5c3d
00000020: f849 be39 09aa ffbd c106 b9bd ad7f 023e
00000030: 56ed 29bd 6d57 003e 4063 ee3d 5592 eebc
00000040: b140 a43c 1930 fe3a 8ba6 a13d 25bc cabc
00000050: 0493 0f3e 4996 d83d cdab 113e b040 34bb
00000060: 5bc4 f53d bf08 a7bc aeb2 6fbd c846 a5bc
00000070: 659a 8fbc ff6d 923d 4507 5dbd d37a 80bd
00000080: b800 36bd 06b1 bebd 52ef 5dbd 03c4 c23d
00000090: 2aa3 ffbd 645a 72bd bfcc 51bc 5d78 953d
000000a0: 0e59 883d 9909 66bd 785b b1bd 8b4a 6e3d
000000b0: effb a7bc 67a1 503d c440 103d 58a9 79bc
000000c0: 461f 7c3d d99f d03d 87eb 983d f2e5 ee3c
000000d0: dd30 053e fd1d 4b3d 15d6 d03d 0b57 6e3b
000000e0: dc30 e43d 7387 dbbd 11cc 01be 05d6 2cbd
000000f0: 66ff 8d3c e051 70bc 3d6a aebd 6d9f b23c
00000100: 94d1 acbc d1ac c7bd f1f8 b9bd f3fd 083e
00000110: 5fd5 b2bd 445b b73d 146f debc 1414 4c3c
00000120: 4deb 44bd deeb 9abd ee77 1dbd c471 0a3e
00000130: 558e 523d 2841 a53d f18f db3b d0fb 953d
00000140: 69a7 0bbd 7899 47bd 63b2 e23d cd37 d8bd
00000150: 6383 eb3c 1b32 55bd e0b1 ef3c 945c ca3c
00000160: 3d2b f1bc 7c14 8c3d 7e13 54bd cbe7 f6bd
00000170: 9271 0a3d db4a f53b e95a 3a3d 9732 08be
-0.0110073965 -0.05645401 -0.08918876 0.12552954 -0.107877105 -0.08771345 0.04019259 0.0538089
0.00036294735 -0.124836035 -0.09034491 0.12744017 -0.041486107 0.1253335 0.11640024 -0.02912251
0.020050379 0.0019392996 0.07893094 -0.024747917 0.14020926 0.105755396 0.14225693 -0.0027504377
0.120003425 -0.020389913 -0.05852001 -0.020175353 -0.017529676 0.07149886 -0.05396201 -0.06273427
-0.04443428 -0.09311108 -0.05418331 0.095100425 -0.12482293 -0.059168234 -0.012805163 0.07298348
0.06657611 -0.056161497 -0.086600244 0.05817656 -0.020505873 0.050935175 0.035218015 -0.015238129
0.061553262 0.101867385 0.07466798 0.02916238 0.13006921 0.049589146 0.10197083 0.00363678
0.11142132 -0.10719194 -0.12675501 -0.042196292 0.017333698 -0.014667958 -0.08516357 0.021804536
-0.021096028 -0.09749759 -0.09080685 0.13378124 -0.087321036 0.089529544 -0.027152576 0.012455959
-0.048075963 -0.07564519 -0.038444452 0.1351996 0.05140527 0.08069068 0.0067005088 0.0732342
-0.0340952 -0.048730344 0.11069181 -0.10557518 0.028749174 -0.052049737 0.029259622 0.024702348
-0.029439563 0.068398446 -0.0517764 -0.1205593 0.033799715 0.00748573 0.045496855 -0.13300548

fc3.bias f4 [3]
00000000: a722 4fbd 0e7b 413d 8cee 9f3d
-0.050570156 0.047236495 0.07809171
